…
 user preferences, and chat history. Furthermore, D2L could help shed light on machine unlearning (Bourtoule et al., 2021) and weight-space interpretability (Olah et al., 2025) by studying and manipulating internalized weights. 

H. LLMs Usage Disclosure 

In this paper, we use LLMs for early drafting. We also use LLMs for improving writing throughout the paper. Nonetheless, we have verified and will take full responsibility for the contents in this paper. 24 Doc-to-LoRA: Learning to Instantly Internalize Contexts 

(perceiver): Idefics2Perceiver( (modality_projection): Idefics2MLP( (gate_proj): Linear(in_features=2304, out_features=9216, bias= False )(up_proj): Linear(in_features=2304, out_features=9216, bias= False )(down_proj): Linear(in_features=9216, out_features=512, bias= False )(act_fn): SiLU() )(encoder): Idefics2PerceiverResampler( (layers): ModuleList( (0-7): 8 x Idefics2PerceiverLayer( (input_latents_layernorm): Idefics2RMSNorm((512,), eps=1e-06) (input_context_layernorm): Idefics2RMSNorm((512,), eps=1e-06) (cross_attn): Idefics2PerceiverFlashAttention2( (q_proj): Linear(in_features=512, out_features=2048, bias= False )(k_proj): Linear(in_features=512, out_features=512, bias= False )(v_proj): Linear(in_features=512, out_features=512, bias= False )(o_proj): Linear(in_features=2048, out_features=512, bias= False ))(post_attention_layernorm): Idefics2RMSNorm((512,), eps=1e-06) (pre_ff_layernorm): Idefics2RMSNorm((512,), eps=1e-06) (post_ff_layernorm): Idefics2RMSNorm((512,), eps=1e-06) (mlp): Idefics2MLP( (gate_proj): Linear(in_features=512, out_features=2048, bias= False )(up_proj): Linear(in_features=512, out_features=2048, bias= False )(down_proj): Linear(in_features=2048, out_features=512, bias= False )(act_fn): SiLU() )))(layernorm): Idefics2RMSNorm((512,), eps=1e-06) )(decoder): Idefics2PerceiverResampler( (layers): ModuleList( (0): Idefics2PerceiverLayer( (input_latents_layernorm): Idefics2RMSNorm((512,), eps=1e-06) (input_context_layernorm): Idefics2RMSNorm((512,), eps=1e-06) (cross_attn): Idefics2PerceiverFlashAttention2( (q_proj): Linear(in_features=512, out_features=2048, bias= False )(k_proj): Linear(in_features=512, out_features=512, bias= False )(v_proj): Linear(in_features=512, out_features=512, bias= False )(o_proj): Linear(in_features=2048, out_features=512, bias= False ))(post_attention_layernorm): Idefics2RMSNorm((512,), eps=1e-06) (pre_ff_layernorm): Idefics2RMSNorm((512,), eps=1e-06) (post_ff_layernorm): Idefics2RMSNorm((512,), eps=1e-06) (mlp): Idefics2MLP( (gate_proj): Linear(in_features=512, out_features=2048, bias= False )(up_proj): Linear(in_features=512, out_features=2048, bias= False )(down_proj): Linear(in_features=2048, out_features=512, bias= False )(act_fn): SiLU() )))(layernorm): Idefics2RMSNorm((512,), eps=1e-06) ))

Listing 1. Compact description of the architecture of the Perceiver module. 

(scaler_A): ParameterDict( (down_proj): Parameter containing: [torch.cuda.FloatTensor of size 1x26x8x1 (cuda:5)]) ,→

(scaler_B): ParameterDict( (down_proj): Parameter containing: [torch.cuda.FloatTensor of size 1x26x8x1 (cuda:5)]) ,→
…
